GlobalMarket/python_files/SP500model.pkl (torch, 3185 bytes, 3 tensors)

weight f4 [32, 5]
0	0xbddaa8ff	-0.10676765
1	0x3dd924b2	0.10602702
2	0x3d187e1f	0.037229653
3	0xbf12cf4c	-0.5734756
4	0xbd7f409b	-0.062317472
5	0xbdefb131	-0.117037185
6	0x3db8f1db	0.09030505
7	0x3dbc7f55	0.09203974
8	0xbc692542	-0.014230074
9	0x3c3fd4cd	0.0117084505
10	0xba8fd7c9	-0.0010974343
11	0xbeb7aaf6	-0.3587262
12	0x3ea991a5	0.3311893
13	0x3cc97bbe	0.024595138
14	0x3ab5c866	0.0013868927
15	0x3dc0fde8	0.09423429
16	0xbdb3ffa0	-0.08788991
17	0xbddbe570	-0.10737121
18	0xbdc07404	-0.09397128
19	0xbcd08820	-0.025455534
20	0xbb3553bb	-0.0027668315
21	0x3d53c127	0.051697876
22	0x3e94e6c9	0.29082325
23	0x3eb73acb	0.35787043
24	0x3dc1dc86	0.0946589
25	0x3cb277e1	0.021785678
26	0xbeb3353a	-0.35001546
27	0xbed577e4	-0.41693032
28	0xbebff802	-0.37493902
29	0x3e6c85ca	0.23097911
30	0xbeb78d0c	-0.35849798
31	0x3e5a529b	0.21320574
32	0xbd93665a	-0.071972564
33	0xbe44cb94	-0.19218284
34	0xbe8deb50	-0.27718592
35	0xbccf9051	-0.02533737
36	0x3beb5876	0.007182176
37	0xbe56caa0	-0.20975733
38	0x3e357243	0.17719369
39	0x3b2b9d42	0.0026186262
40	0xbf203568	-0.6258149
41	0x3e4b79fd	0.19870754
42	0x3e2445ba	0.16042224
43	0x3f029f8c	0.510247
44	0xbe448055	-0.1918958
45	0xbd864e4f	-0.06557905
46	0x3eb9690a	0.3621295
47	0x3ed94e8b	0.42442736
48	0xbd8cae1c	-0.06869146
49	0x3ebcdba0	0.3688631
50	0xbe76fcb0	-0.2411983
51	0xbee50213	-0.44728145
52	0xbe644ce4	-0.22294956
53	0xbe2371f1	-0.15961434
54	0x3defaa21	0.117023714
55	0xbecc77cc	-0.39935148
56	0x3e8a5cae	0.27023834
57	0xbe2de8a0	-0.1698327
58	0x3f10d493	0.5657436
59	0xbe59ca0c	-0.21268481
60	0x3ebe74a4	0.37198365
61	0xbd04b0e2	-0.03239525
62	0x3ea1afd9	0.31579474
63	0xbf3e8d98	-0.74434805
64	0x3d33af00	0.043868065
65	0xbd075483	-0.03303958
66	0xbe5f880c	-0.21829242
67	0xbdb307c4	-0.087417156
68	0x3e2f0d75	0.17094977
69	0x3ebbde24	0.36692917
70	0x3e2e9833	0.17050247
71	0x3ec20fb8	0.37902617
72	0x3e51286d	0.20425577
73	0x3f1bfe2d	0.60934716
74	0xbe58a043	-0.21154885
75	0xbddd50df	-0.108064406
76	0xbed9ca6a	-0.42537242
77	0x3ea4001b	0.3203133
78	0x3e569ee0	0.20959044
79	0x3a212bb5	0.00061481755
80	0xbee8bf48	-0.45458436
81	0xbcab63a8	-0.020921543
82	0xbde2b103	-0.110689186
83	0xbed1ce67	-0.40977785
84	0xbe29cf6d	-0.16583033
85	0x3bb208f1	0.005433195
86	0xbe1dfcc6	-0.15428457
87	0x3e9b17fd	0.3029174
88	0xbda40e2e	-0.08010517
89	0x3dbd0692	0.09229769
90	0x3b1fd978	0.0024391096
91	0xbe83e476	-0.2576024
92	0x3de35283	0.11099722
93	0x3e2eaf72	0.17059115
94	0xbdf11b49	-0.11772782
95	0xbdc98191	-0.09839166
96	0xbcb2b87f	-0.02181649
97	0x3e359329	0.17731918
98	0xbd77925d	-0.060442317
99	0x3b31f364	0.0027153129
100	0xbda8b35f	-0.08237337
101	0xbe7c36b9	-0.2463025
102	0x3e130d00	0.14360428
103	0xbf094bec	-0.5363147
104	0xbea8e6b0	-0.329885
105	0x3e126170	0.14294982
106	0x3efa2aaf	0.4886069
107	0x3e64f9d8	0.22360933
108	0x3f17d0aa	0.5930277
109	0xbcbc2841	-0.022968413
110	0xbe9f5a19	-0.31123427
111	0xbe1d608a	-0.15368858
112	0xbde59bd5	-0.11211363
113	0x3ee4fd3f	0.4472446
114	0x3e29f631	0.16597821
115	0x3e801187	0.25013372
116	0xbe8cb149	-0.27479008
117	0x3e8eced5	0.27892175
118	0x3f280e79	0.65647084
119	0x3e26560a	0.16243759
120	0xbe24cfc6	-0.16094884
121	0x3cec7b92	0.028867517
122	0x3e8fbe65	0.28074947
123	0x3efbe26d	0.49196187
124	0x3dfbaeba	0.12289186
125	0x3d57be22	0.05267156
126	0x3ec47b43	0.3837529
127	0xbe902aa6	-0.28157538
128	0xbe76417d	-0.2404842
129	0x3e8127e9	0.25225762
130	0x3df2cfbe	0.1185603
131	0x3e9cce83	0.30626306
132	0xbe59ce5c	-0.21270126
133	0xbeb2bf2f	-0.34911487
134	0x3c913b05	0.017728338
135	0x3ec41d4f	0.3830361
136	0xbdd1fb71	-0.10253037
137	0x3d222aa9	0.039591465
138	0x3d0cd87c	0.034386143
139	0xbeff7025	-0.49890247
140	0x3e163553	0.14668779
141	0xbee61d6b	-0.4494432
142	0xbea1c46d	-0.31595173
143	0xbf470b81	-0.7775193
144	0x3d6c7706	0.057730697
145	0xbe3a1e6a	-0.18175665
146	0xbec5ff43	-0.38671312
147	0x3ea45384	0.32094967
148	0x3ca29337	0.019845588
149	0x3d336036	0.043792926
150	0xbdbbaab7	-0.09163421
151	0x3d6e9a0b	0.058252376
152	0x3dfa8cf4	0.12233916
153	0xbd8e2fa9	-0.06942684
154	0xbd543579	-0.051808808
155	0xbd782aae	-0.060587578
156	0x3eb3872c	0.35064065
157	0xbeab79be	-0.3349132
158	0x3dbd184b	0.09233149
159	0x3e427aae	0.18992111

bias f4 [32]
0	0x3e89f85c	0.26947296
1	0xbe0d3e4d	-0.13793297
2	0xbc17ed1f	-0.009272843
3	0xbeb9cb4c	-0.36287916
4	0x3e823fe1	0.2543936
5	0xbd7f54e6	-0.062336825
6	0xbe955d47	-0.29172727
7	0xbde79400	-0.11307526
8	0x3e408d48	0.18803895
9	0xbe9816c1	-0.2970486
10	0xbd8926cb	-0.06696852
11	0x3e4ca50e	0.19984838
12	0x3e27a745	0.16372402
13	0xbed3159f	-0.41227433
14	0x3d98b05e	0.07455514
15	0xbc1c0ffc	-0.009525295
16	0xbe88d4e1	-0.26724914
17	0xbed8f0a1	-0.42371085
18	0xbe07b037	-0.13250814
19	0xbc4ec103	-0.01261926
20	0x3e9f793a	0.31147176
21	0xbc791bd6	-0.0152043905
22	0x3e70a5e3	0.23500781
23	0x3e5741f1	0.21021248
24	0xbea4c82e	-0.32183975
25	0xbf82b178	-1.0210409
26	0xbe710f70	-0.23541045
27	0xbee60e7e	-0.44932932
28	0x3b33b639	0.0027421846
29	0xbebdfb19	-0.37105635
30	0xbdc066cf	-0.09394609
31	0xbf1bbcfc	-0.6083524

weight f4 [1, 32]
0	0xbd814273	-0.06311502
1	0xb9bfac8e	-0.00036558922
2	0xb8d01038	-9.921234e-05
3	0x3dbd6e42	0.09249546
4	0x3dc74101	0.097291954
5	0xbe1fb1e0	-0.15595198
6	0xbd701515	-0.058613855
7	0xbc88430d	-0.016633535
8	0x3d8c45c3	0.068492435
9	0x3dd26355	0.10272852
10	0xbde07bd2	-0.10961117
11	0x3dd74f5d	0.10513184
12	0xbe8d41ef	-0.27589366
13	0xbdb58b51	-0.08864463
14	0x3e728419	0.23683204
15	0xb8b6558e	-8.694372e-05
16	0xbe315d3a	-0.1732072
17	0xbaac2522	-0.0013133625
18	0x3c0dad0f	0.008647217
19	0xb898b2f8	-7.28126e-05
20	0xbe1b56b2	-0.1516979
21	0x3e2bd7e4	0.16781574
22	0x3d8fded1	0.07024921
23	0x3e3c8ae8	0.18412364
24	0x3df06079	0.11737151
25	0x3f439efe	0.7641448
26	0x3ba5710b	0.005048876
27	0xbd090c04	-0.033458725
28	0xbe62e54c	-0.22157782
29	0x3e063c87	0.13109027
30	0x3d952eb7	0.07284301
31	0xbe6aff2f	-0.22948907
